dataset: location
epochs: 200
result folder: ../result/location/code_publish/
network architecture: ./model/fccnet_location.py
x_train shape: (10000, 183)
10000 train samples
10000 test samples
y_train shape: (10000,)
Model: "model_1"
_________________________________________________________________
Layer (type)                 Output Shape              Param #   
=================================================================
input_1 (InputLayer)         (None, 183)               0         
_________________________________________________________________
dense_1 (Dense)              (None, 1024)              188416    
_________________________________________________________________
dense_2 (Dense)              (None, 512)               524800    
_________________________________________________________________
dense_3 (Dense)              (None, 256)               131328    
_________________________________________________________________
dense_4 (Dense)              (None, 128)               32896     
_________________________________________________________________
dense_5 (Dense)              (None, 2)                 258       
_________________________________________________________________
activation_1 (Activation)    (None, 2)                 0         
=================================================================
Total params: 877,698
Trainable params: 877,698
Non-trainable params: 0
_________________________________________________________________
Epochs: 99
Test loss: 0.43820645449161527
Test accuracy: 0.8334000110626221
Train loss: 0.10939343595504761
Train accuracy: 0.9617999792098999
Learning rate: 0.0010000000474974513
Epochs: 199
Test loss: 0.688193462061882
Test accuracy: 0.8259000182151794
Train loss: 0.040479383696988225
Train accuracy: 0.980400025844574
Model: "model_2"
_________________________________________________________________
Layer (type)                 Output Shape              Param #   
=================================================================
input_2 (InputLayer)         (None, 2)                 0         
_________________________________________________________________
dense_6 (Dense)              (None, 256)               768       
_________________________________________________________________
dense_7 (Dense)              (None, 128)               32896     
_________________________________________________________________
dense_8 (Dense)              (None, 64)                8256      
_________________________________________________________________
dense_9 (Dense)              (None, 1)                 65        
_________________________________________________________________
activation_2 (Activation)    (None, 1)                 0         
=================================================================
Total params: 41,985
Trainable params: 41,985
Non-trainable params: 0
_________________________________________________________________
Epochs: 99
Train loss: 0.687777396774292
Train accuracy: 0.5584499835968018
Epochs: 199
Train loss: 0.6840214721679687
Train accuracy: 0.5588499903678894
Epochs: 299
Train loss: 0.6816607674598694
…
