dataset: location
epochs: 200
result folder: ../result/location/code_publish/
network architecture: ./model/fccnet_location.py
x_train shape: (1000, 446)
1000 train samples
1000 test samples
y_train shape: (1000,)
Model: "model_1"
_________________________________________________________________
Layer (type)                 Output Shape              Param #   
=================================================================
input_1 (InputLayer)         (None, 446)               0         
_________________________________________________________________
dense_1 (Dense)              (None, 1024)              457728    
_________________________________________________________________
dense_2 (Dense)              (None, 512)               524800    
_________________________________________________________________
dense_3 (Dense)              (None, 256)               131328    
_________________________________________________________________
dense_4 (Dense)              (None, 128)               32896     
_________________________________________________________________
dense_5 (Dense)              (None, 30)                3870      
_________________________________________________________________
activation_1 (Activation)    (None, 30)                0         
=================================================================
Total params: 1,150,622
Trainable params: 1,150,622
Non-trainable params: 0
_________________________________________________________________
Epochs: 99
Test loss: 1.2466389150619508
Test accuracy: 0.5979999899864197
Train loss: 0.1825295478105545
Train accuracy: 0.9990000128746033
Learning rate: 0.0010000000474974513
Epochs: 199
Test loss: 1.2497994823455811
Test accuracy: 0.6060000061988831
Train loss: 0.04596319544315338
Train accuracy: 1.0
Model: "model_2"
_________________________________________________________________
Layer (type)                 Output Shape              Param #   
=================================================================
input_2 (InputLayer)         (None, 30)                0         
_________________________________________________________________
dense_6 (Dense)              (None, 256)               7936      
_________________________________________________________________
dense_7 (Dense)              (None, 128)               32896     
_________________________________________________________________
dense_8 (Dense)              (None, 64)                8256      
_________________________________________________________________
dense_9 (Dense)              (None, 1)                 65        
_________________________________________________________________
activation_2 (Activation)    (None, 1)                 0         
=================================================================
Total params: 49,153
Trainable params: 49,153
Non-trainable params: 0
_________________________________________________________________
Epochs: 99
Train loss: 0.6548383502960206
Train accuracy: 0.7615000009536743
Epochs: 199
Train loss: 0.6041237592697144
Train accuracy: 0.7820000052452087
Epochs: 299
Train loss: 0.526482135295868
…
test sample id: 500
test sample id: 600
test sample id: 700
test sample id: 800
test sample id: 900
test sample id: 1000
test sample id: 1100
test sample id: 1200
test sample id: 1300
test sample id: 1400
test sample id: 1500
test sample id: 1600
test sample id: 1700
test sample id: 1800
test sample id: 1900
Success fraction: 1.0
Loading defense model...
Model: "model_1"
_________________________________________________________________
Layer (type)                 Output Shape              Param #   
=================================================================
input_1 (InputLayer)         (None, 446)               0         
_________________________________________________________________
dense_1 (Dense)              (None, 1024)              457728    
_________________________________________________________________
dense_2 (Dense)              (None, 512)               524800    
_________________________________________________________________
dense_3 (Dense)              (None, 256)               131328    
_________________________________________________________________
dense_4 (Dense)              (None, 128)               32896     
_________________________________________________________________
dense_5 (Dense)              (None, 30)                3870      
_________________________________________________________________
activation_1 (Activation)    (None, 30)                0         
=================================================================
Total params: 1,150,622
Trainable params: 1,150,622
Non-trainable params: 0
_________________________________________________________________
(500, 446)
(500, 446)
Epochs: 99
Test loss: 2.066428915977478
Test accuracy: 0.4000000059604645
Train loss: 0.8711366853713989
Train accuracy: 0.8999999761581421
Learning rate: 0.0010000000474974513
…
